…
[INFO] Register zero_ops() for <class 'torch.nn.modules.activation.ReLU'>.
[INFO] Register zero_ops() for <class 'torch.nn.modules.container.Sequential'>.
[INFO] Register count_linear() for <class 'torch.nn.modules.linear.Linear'>.
FLOPs (thop): 2,759,342,336.0
FLOPs (fvcore): 2,759,348,608

Detailed Model Summary:
==========================================================================================
Layer (type:depth-idx)                   Output Shape              Param #
==========================================================================================
DSConvDiscriminator                      [1, 1, 224, 224]          --
├─Sequential: 1-1                        [1, 8, 224, 224]          --
│    └─DSConv: 2-1                       [1, 8, 224, 224]          --
│    │    └─Conv2d: 3-1                  [1, 3, 224, 224]          78
│    │    └─Conv2d: 3-2                  [1, 8, 224, 224]          32
│    └─ReLU: 2-2                         [1, 8, 224, 224]          --
├─Sequential: 1-2                        [1, 16, 224, 224]         --
│    └─DSConv: 2-3                       [1, 16, 224, 224]         --
│    │    └─Conv2d: 3-3                  [1, 8, 224, 224]          208
│    │    └─Conv2d: 3-4                  [1, 16, 224, 224]         144
│    └─ReLU: 2-4                         [1, 16, 224, 224]         --
├─Sequential: 1-3                        [1, 64, 224, 224]         --
│    └─DSConv: 2-5                       [1, 64, 224, 224]         --
│    │    └─Conv2d: 3-5                  [1, 16, 224, 224]         416
│    │    └─Conv2d: 3-6                  [1, 64, 224, 224]         1,088
│    └─ReLU: 2-6                         [1, 64, 224, 224]         --
├─Sequential: 1-4                        [1, 128, 224, 224]        --
│    └─DSConv: 2-7                       [1, 128, 224, 224]        --
│    │    └─Conv2d: 3-7                  [1, 64, 224, 224]         1,664
│    │    └─Conv2d: 3-8                  [1, 128, 224, 224]        8,320
│    └─ReLU: 2-8                         [1, 128, 224, 224]        --
├─Sequential: 1-5                        [1, 128, 224, 224]        --
│    └─DSConv: 2-9                       [1, 128, 224, 224]        --
│    │    └─Conv2d: 3-9                  [1, 128, 224, 224]        3,328
│    │    └─Conv2d: 3-10                 [1, 128, 224, 224]        16,512
│    └─ReLU: 2-10                        [1, 128, 224, 224]        --
├─Sequential: 1-6                        [1, 128, 224, 224]        --
│    └─DSConv: 2-11                      [1, 128, 224, 224]        --
│    │    └─Conv2d: 3-11                 [1, 128, 224, 224]        3,328
│    │    └─Conv2d: 3-12                 [1, 128, 224, 224]        16,512
│    └─ReLU: 2-12                        [1, 128, 224, 224]        --
├─Sequential: 1-7                        [1, 1, 224, 224]          --
│    └─DSConv: 2-13                      [1, 1, 224, 224]          --
│    │    └─Conv2d: 3-13                 [1, 128, 224, 224]        3,328
│    │    └─Conv2d: 3-14                 [1, 1, 224, 224]          129
├─Sequential: 1-8                        [1, 64, 56, 56]           --
│    └─DSConv: 2-14                      [1, 64, 56, 56]           --
│    │    └─Conv2d: 3-15                 [1, 128, 56, 56]          3,328
│    │    └─Conv2d: 3-16                 [1, 64, 56, 56]           8,256
│    └─ReLU: 2-15                        [1, 64, 56, 56]           --
├─Sequential: 1-9                        [1, 32, 14, 14]           --
│    └─DSConv: 2-16                      [1, 32, 14, 14]           --
│    │    └─Conv2d: 3-17                 [1, 64, 14, 14]           1,664
│    │    └─Conv2d: 3-18                 [1, 32, 14, 14]           2,080
│    └─ReLU: 2-17                        [1, 32, 14, 14]           --
├─Sequential: 1-10                       [1, 1]                    --
│    └─Linear: 2-18                      [1, 1024]                 6,423,552
│    └─Linear: 2-19                      [1, 1]                    1,025
│    └─Sigmoid: 2-20                     [1, 1]                    --
==========================================================================================
Total params: 6,494,992
Trainable params: 6,494,992
Non-trainable params: 0
Total mult-adds (G): 2.81
==========================================================================================
Input size (MB): 0.60
Forward/backward pass size (MB): 385.51
Params size (MB): 25.98
Estimated Total Size (MB): 412.09
…
[INFO] Register zero_ops() for <class 'torch.nn.modules.container.Sequential'>.
[INFO] Register count_convNd() for <class 'torch.nn.modules.conv.ConvTranspose2d'>.
[INFO] Register count_avgpool() for <class 'torch.nn.modules.pooling.AvgPool2d'>.
FLOPs (thop): 36,342,476,800.0
FLOPs (fvcore): 28,938,907,648

Detailed Model Summary:
==========================================================================================
Layer (type:depth-idx)                   Output Shape              Param #
==========================================================================================
DSConvGenerator                          [1, 1, 224, 224]          --
├─Sequential: 1-1                        [1, 32, 224, 224]         --
│    └─DSConv: 2-1                       [1, 32, 224, 224]         --
│    │    └─Conv2d: 3-1                  [1, 4, 224, 224]          40
│    │    └─Conv2d: 3-2                  [1, 32, 224, 224]         160
│    └─ReLU: 2-2                         [1, 32, 224, 224]         --
├─Sequential: 1-2                        [1, 32, 224, 224]         --
│    └─DSConv: 2-3                       [1, 32, 224, 224]         --
│    │    └─Conv2d: 3-3                  [1, 32, 224, 224]         320
│    │    └─Conv2d: 3-4                  [1, 32, 224, 224]         1,056
│    └─ReLU: 2-4                         [1, 32, 224, 224]         --
│    └─DSConv: 2-5                       [1, 32, 224, 224]         --
│    │    └─Conv2d: 3-5                  [1, 32, 224, 224]         320
│    │    └─Conv2d: 3-6                  [1, 32, 224, 224]         1,056
│    └─ReLU: 2-6                         [1, 32, 224, 224]         --
├─Sequential: 1-3                        [1, 32, 224, 224]         --
│    └─DSConv: 2-7                       [1, 32, 224, 224]         --
│    │    └─Conv2d: 3-7                  [1, 32, 224, 224]         320
│    │    └─Conv2d: 3-8                  [1, 32, 224, 224]         1,056
│    └─ReLU: 2-8                         [1, 32, 224, 224]         --
│    └─DSConv: 2-9                       [1, 32, 224, 224]         --
│    │    └─Conv2d: 3-9                  [1, 32, 224, 224]         320
│    │    └─Conv2d: 3-10                 [1, 32, 224, 224]         1,056
│    └─ReLU: 2-10                        [1, 32, 224, 224]         --
├─Sequential: 1-4                        [1, 32, 224, 224]         --
│    └─DSConv: 2-11                      [1, 32, 224, 224]         --
│    │    └─Conv2d: 3-11                 [1, 32, 224, 224]         320
│    │    └─Conv2d: 3-12                 [1, 32, 224, 224]         1,056
│    └─ReLU: 2-12                        [1, 32, 224, 224]         --
│    └─DSConv: 2-13                      [1, 32, 224, 224]         --
│    │    └─Conv2d: 3-13                 [1, 32, 224, 224]         320
│    │    └─Conv2d: 3-14                 [1, 32, 224, 224]         1,056
│    └─ReLU: 2-14                        [1, 32, 224, 224]         --
├─Sequential: 1-5                        [1, 32, 224, 224]         --
│    └─DSConv: 2-15                      [1, 32, 224, 224]         --
│    │    └─Conv2d: 3-15                 [1, 32, 224, 224]         320
│    │    └─Conv2d: 3-16                 [1, 32, 224, 224]         1,056
│    └─ReLU: 2-16                        [1, 32, 224, 224]         --
│    └─DSConv: 2-17                      [1, 32, 224, 224]         --
│    │    └─Conv2d: 3-17                 [1, 32, 224, 224]         320
│    │    └─Conv2d: 3-18                 [1, 32, 224, 224]         1,056
│    └─ReLU: 2-18                        [1, 32, 224, 224]         --
├─Sequential: 1-6                        [1, 32, 224, 224]         --
│    └─DSConv: 2-19                      [1, 32, 224, 224]         --
│    │    └─Conv2d: 3-19                 [1, 32, 224, 224]         320
│    │    └─Conv2d: 3-20                 [1, 32, 224, 224]         1,056
│    └─ReLU: 2-20                        [1, 32, 224, 224]         --
│    └─DSConv: 2-21                      [1, 32, 224, 224]         --
│    │    └─Conv2d: 3-21                 [1, 32, 224, 224]         320
│    │    └─Conv2d: 3-22                 [1, 32, 224, 224]         1,056
│    └─ReLU: 2-22                        [1, 32, 224, 224]         --
├─Sequential: 1-7                        [1, 32, 224, 224]         --
│    └─Conv2d: 2-23                      [1, 32, 224, 224]         18,464
│    └─Sigmoid: 2-24                     [1, 32, 224, 224]         --
├─Sequential: 1-8                        [1, 32, 224, 224]         --
│    └─Conv2d: 2-25                      [1, 32, 224, 224]         18,464
│    └─Sigmoid: 2-26                     [1, 32, 224, 224]         --
├─Sequential: 1-9                        [1, 32, 224, 224]         --
│    └─Conv2d: 2-27                      [1, 32, 224, 224]         18,464
│    └─Tanh: 2-28                        [1, 32, 224, 224]         --
├─Sequential: 1-10                       [1, 32, 224, 224]         --
│    └─Conv2d: 2-29                      [1, 32, 224, 224]         18,464
│    └─Sigmoid: 2-30                     [1, 32, 224, 224]         --
├─Conv2d: 1-11                           [1, 1, 224, 224]          289
├─Sequential: 1-12                       [1, 32, 224, 224]         (recursive)
│    └─DSConv: 2-31                      [1, 32, 224, 224]         (recursive)
│    │    └─Conv2d: 3-23                 [1, 4, 224, 224]          (recursive)
│    │    └─Conv2d: 3-24                 [1, 32, 224, 224]         (recursive)
│    └─ReLU: 2-32                        [1, 32, 224, 224]         --
├─Sequential: 1-13                       [1, 32, 224, 224]         (recursive)
│    └─DSConv: 2-33                      [1, 32, 224, 224]         (recursive)
│    │    └─Conv2d: 3-25                 [1, 32, 224, 224]         (recursive)
│    │    └─Conv2d: 3-26                 [1, 32, 224, 224]         (recursive)
│    └─ReLU: 2-34                        [1, 32, 224, 224]         --
│    └─DSConv: 2-35                      [1, 32, 224, 224]         (recursive)
│    │    └─Conv2d: 3-27                 [1, 32, 224, 224]         (recursive)
│    │    └─Conv2d: 3-28                 [1, 32, 224, 224]         (recursive)
│    └─ReLU: 2-36                        [1, 32, 224, 224]         --
├─Sequential: 1-14                       [1, 32, 224, 224]         (recursive)
│    └─DSConv: 2-37                      [1, 32, 224, 224]         (recursive)
│    │    └─Conv2d: 3-29                 [1, 32, 224, 224]         (recursive)
│    │    └─Conv2d: 3-30                 [1, 32, 224, 224]         (recursive)
│    └─ReLU: 2-38                        [1, 32, 224, 224]         --
│    └─DSConv: 2-39                      [1, 32, 224, 224]         (recursive)
│    │    └─Conv2d: 3-31                 [1, 32, 224, 224]         (recursive)
│    │    └─Conv2d: 3-32                 [1, 32, 224, 224]         (recursive)
│    └─ReLU: 2-40                        [1, 32, 224, 224]         --
├─Sequential: 1-15                       [1, 32, 224, 224]         (recursive)
│    └─DSConv: 2-41                      [1, 32, 224, 224]         (recursive)
│    │    └─Conv2d: 3-33                 [1, 32, 224, 224]         (recursive)
│    │    └─Conv2d: 3-34                 [1, 32, 224, 224]         (recursive)
│    └─ReLU: 2-42                        [1, 32, 224, 224]         --
│    └─DSConv: 2-43                      [1, 32, 224, 224]         (recursive)
│    │    └─Conv2d: 3-35                 [1, 32, 224, 224]         (recursive)
│    │    └─Conv2d: 3-36                 [1, 32, 224, 224]         (recursive)
│    └─ReLU: 2-44                        [1, 32, 224, 224]         --
├─Sequential: 1-16                       [1, 32, 224, 224]         (recursive)
│    └─DSConv: 2-45                      [1, 32, 224, 224]         (recursive)
│    │    └─Conv2d: 3-37                 [1, 32, 224, 224]         (recursive)
│    │    └─Conv2d: 3-38                 [1, 32, 224, 224]         (recursive)
│    └─ReLU: 2-46                        [1, 32, 224, 224]         --
│    └─DSConv: 2-47                      [1, 32, 224, 224]         (recursive)
│    │    └─Conv2d: 3-39                 [1, 32, 224, 224]         (recursive)
│    │    └─Conv2d: 3-40                 [1, 32, 224, 224]         (recursive)
│    └─ReLU: 2-48                        [1, 32, 224, 224]         --
├─Sequential: 1-17                       [1, 32, 224, 224]         (recursive)
│    └─DSConv: 2-49                      [1, 32, 224, 224]         (recursive)
│    │    └─Conv2d: 3-41                 [1, 32, 224, 224]         (recursive)
│    │    └─Conv2d: 3-42                 [1, 32, 224, 224]         (recursive)
│    └─ReLU: 2-50                        [1, 32, 224, 224]         --
│    └─DSConv: 2-51                      [1, 32, 224, 224]         (recursive)
│    │    └─Conv2d: 3-43                 [1, 32, 224, 224]         (recursive)
│    │    └─Conv2d: 3-44                 [1, 32, 224, 224]         (recursive)
│    └─ReLU: 2-52                        [1, 32, 224, 224]         --
├─Sequential: 1-18                       [1, 32, 224, 224]         (recursive)
│    └─Conv2d: 2-53                      [1, 32, 224, 224]         (recursive)
│    └─Sigmoid: 2-54                     [1, 32, 224, 224]         --
├─Sequential: 1-19                       [1, 32, 224, 224]         (recursive)
│    └─Conv2d: 2-55                      [1, 32, 224, 224]         (recursive)
│    └─Sigmoid: 2-56                     [1, 32, 224, 224]         --
├─Sequential: 1-20                       [1, 32, 224, 224]         (recursive)
│    └─Conv2d: 2-57                      [1, 32, 224, 224]         (recursive)
│    └─Tanh: 2-58                        [1, 32, 224, 224]         --
├─Sequential: 1-21                       [1, 32, 224, 224]         (recursive)
│    └─Conv2d: 2-59                      [1, 32, 224, 224]         (recursive)
│    └─Sigmoid: 2-60                     [1, 32, 224, 224]         --
├─Conv2d: 1-22                           [1, 1, 224, 224]          (recursive)
├─Sequential: 1-23                       [1, 32, 224, 224]         (recursive)
│    └─DSConv: 2-61                      [1, 32, 224, 224]         (recursive)
│    │    └─Conv2d: 3-45                 [1, 4, 224, 224]          (recursive)
│    │    └─Conv2d: 3-46                 [1, 32, 224, 224]         (recursive)
│    └─ReLU: 2-62                        [1, 32, 224, 224]         --
├─Sequential: 1-24                       [1, 32, 224, 224]         (recursive)
│    └─DSConv: 2-63                      [1, 32, 224, 224]         (recursive)
│    │    └─Conv2d: 3-47                 [1, 32, 224, 224]         (recursive)
│    │    └─Conv2d: 3-48                 [1, 32, 224, 224]         (recursive)
│    └─ReLU: 2-64                        [1, 32, 224, 224]         --
│    └─DSConv: 2-65                      [1, 32, 224, 224]         (recursive)
│    │    └─Conv2d: 3-49                 [1, 32, 224, 224]         (recursive)
│    │    └─Conv2d: 3-50                 [1, 32, 224, 224]         (recursive)
│    └─ReLU: 2-66                        [1, 32, 224, 224]         --
├─Sequential: 1-25                       [1, 32, 224, 224]         (recursive)
│    └─DSConv: 2-67                      [1, 32, 224, 224]         (recursive)
│    │    └─Conv2d: 3-51                 [1, 32, 224, 224]         (recursive)
│    │    └─Conv2d: 3-52                 [1, 32, 224, 224]         (recursive)
│    └─ReLU: 2-68                        [1, 32, 224, 224]         --
│    └─DSConv: 2-69                      [1, 32, 224, 224]         (recursive)
│    │    └─Conv2d: 3-53                 [1, 32, 224, 224]         (recursive)
│    │    └─Conv2d: 3-54                 [1, 32, 224, 224]         (recursive)
│    └─ReLU: 2-70                        [1, 32, 224, 224]         --
├─Sequential: 1-26                       [1, 32, 224, 224]         (recursive)
│    └─DSConv: 2-71                      [1, 32, 224, 224]         (recursive)
│    │    └─Conv2d: 3-55                 [1, 32, 224, 224]         (recursive)
│    │    └─Conv2d: 3-56                 [1, 32, 224, 224]         (recursive)
│    └─ReLU: 2-72                        [1, 32, 224, 224]         --
│    └─DSConv: 2-73                      [1, 32, 224, 224]         (recursive)
│    │    └─Conv2d: 3-57                 [1, 32, 224, 224]         (recursive)
│    │    └─Conv2d: 3-58                 [1, 32, 224, 224]         (recursive)
│    └─ReLU: 2-74                        [1, 32, 224, 224]         --
├─Sequential: 1-27                       [1, 32, 224, 224]         (recursive)
│    └─DSConv: 2-75                      [1, 32, 224, 224]         (recursive)
│    │    └─Conv2d: 3-59                 [1, 32, 224, 224]         (recursive)
│    │    └─Conv2d: 3-60                 [1, 32, 224, 224]         (recursive)
│    └─ReLU: 2-76                        [1, 32, 224, 224]         --
│    └─DSConv: 2-77                      [1, 32, 224, 224]         (recursive)
│    │    └─Conv2d: 3-61                 [1, 32, 224, 224]         (recursive)
│    │    └─Conv2d: 3-62                 [1, 32, 224, 224]         (recursive)
│    └─ReLU: 2-78                        [1, 32, 224, 224]         --
├─Sequential: 1-28                       [1, 32, 224, 224]         (recursive)
│    └─DSConv: 2-79                      [1, 32, 224, 224]         (recursive)
│    │    └─Conv2d: 3-63                 [1, 32, 224, 224]         (recursive)
│    │    └─Conv2d: 3-64                 [1, 32, 224, 224]         (recursive)
│    └─ReLU: 2-80                        [1, 32, 224, 224]         --
│    └─DSConv: 2-81                      [1, 32, 224, 224]         (recursive)
│    │    └─Conv2d: 3-65                 [1, 32, 224, 224]         (recursive)
│    │    └─Conv2d: 3-66                 [1, 32, 224, 224]         (recursive)
│    └─ReLU: 2-82                        [1, 32, 224, 224]         --
├─Sequential: 1-29                       [1, 32, 224, 224]         (recursive)
│    └─Conv2d: 2-83                      [1, 32, 224, 224]         (recursive)
│    └─Sigmoid: 2-84                     [1, 32, 224, 224]         --
├─Sequential: 1-30                       [1, 32, 224, 224]         (recursive)
│    └─Conv2d: 2-85                      [1, 32, 224, 224]         (recursive)
│    └─Sigmoid: 2-86                     [1, 32, 224, 224]         --
├─Sequential: 1-31                       [1, 32, 224, 224]         (recursive)
│    └─Conv2d: 2-87                      [1, 32, 224, 224]         (recursive)
│    └─Tanh: 2-88                        [1, 32, 224, 224]         --
├─Sequential: 1-32                       [1, 32, 224, 224]         (recursive)
│    └─Conv2d: 2-89                      [1, 32, 224, 224]         (recursive)
│    └─Sigmoid: 2-90                     [1, 32, 224, 224]         --
├─Conv2d: 1-33                           [1, 1, 224, 224]          (recursive)
├─Sequential: 1-34                       [1, 32, 224, 224]         (recursive)
│    └─DSConv: 2-91                      [1, 32, 224, 224]         (recursive)
│    │    └─Conv2d: 3-67                 [1, 4, 224, 224]          (recursive)
│    │    └─Conv2d: 3-68                 [1, 32, 224, 224]         (recursive)
│    └─ReLU: 2-92                        [1, 32, 224, 224]         --
├─Sequential: 1-35                       [1, 32, 224, 224]         (recursive)
│    └─DSConv: 2-93                      [1, 32, 224, 224]         (recursive)
│    │    └─Conv2d: 3-69                 [1, 32, 224, 224]         (recursive)
│    │    └─Conv2d: 3-70                 [1, 32, 224, 224]         (recursive)
│    └─ReLU: 2-94                        [1, 32, 224, 224]         --
│    └─DSConv: 2-95                      [1, 32, 224, 224]         (recursive)
│    │    └─Conv2d: 3-71                 [1, 32, 224, 224]         (recursive)
│    │    └─Conv2d: 3-72                 [1, 32, 224, 224]         (recursive)
│    └─ReLU: 2-96                        [1, 32, 224, 224]         --
├─Sequential: 1-36                       [1, 32, 224, 224]         (recursive)
│    └─DSConv: 2-97                      [1, 32, 224, 224]         (recursive)
│    │    └─Conv2d: 3-73                 [1, 32, 224, 224]         (recursive)
│    │    └─Conv2d: 3-74                 [1, 32, 224, 224]         (recursive)
│    └─ReLU: 2-98                        [1, 32, 224, 224]         --
│    └─DSConv: 2-99                      [1, 32, 224, 224]         (recursive)
│    │    └─Conv2d: 3-75                 [1, 32, 224, 224]         (recursive)
│    │    └─Conv2d: 3-76                 [1, 32, 224, 224]         (recursive)
│    └─ReLU: 2-100                       [1, 32, 224, 224]         --
├─Sequential: 1-37                       [1, 32, 224, 224]         (recursive)
│    └─DSConv: 2-101                     [1, 32, 224, 224]         (recursive)
│    │    └─Conv2d: 3-77                 [1, 32, 224, 224]         (recursive)
│    │    └─Conv2d: 3-78                 [1, 32, 224, 224]         (recursive)
│    └─ReLU: 2-102                       [1, 32, 224, 224]         --
│    └─DSConv: 2-103                     [1, 32, 224, 224]         (recursive)
│    │    └─Conv2d: 3-79                 [1, 32, 224, 224]         (recursive)
│    │    └─Conv2d: 3-80                 [1, 32, 224, 224]         (recursive)
│    └─ReLU: 2-104                       [1, 32, 224, 224]         --
├─Sequential: 1-38                       [1, 32, 224, 224]         (recursive)
│    └─DSConv: 2-105                     [1, 32, 224, 224]         (recursive)
│    │    └─Conv2d: 3-81                 [1, 32, 224, 224]         (recursive)
│    │    └─Conv2d: 3-82                 [1, 32, 224, 224]         (recursive)
│    └─ReLU: 2-106                       [1, 32, 224, 224]         --
│    └─DSConv: 2-107                     [1, 32, 224, 224]         (recursive)
│    │    └─Conv2d: 3-83                 [1, 32, 224, 224]         (recursive)
│    │    └─Conv2d: 3-84                 [1, 32, 224, 224]         (recursive)
│    └─ReLU: 2-108                       [1, 32, 224, 224]         --
├─Sequential: 1-39                       [1, 32, 224, 224]         (recursive)
│    └─DSConv: 2-109                     [1, 32, 224, 224]         (recursive)
│    │    └─Conv2d: 3-85                 [1, 32, 224, 224]         (recursive)
│    │    └─Conv2d: 3-86                 [1, 32, 224, 224]         (recursive)
│    └─ReLU: 2-110                       [1, 32, 224, 224]         --
│    └─DSConv: 2-111                     [1, 32, 224, 224]         (recursive)
│    │    └─Conv2d: 3-87                 [1, 32, 224, 224]         (recursive)
│    │    └─Conv2d: 3-88                 [1, 32, 224, 224]         (recursive)
│    └─ReLU: 2-112                       [1, 32, 224, 224]         --
├─Sequential: 1-40                       [1, 32, 224, 224]         (recursive)
│    └─Conv2d: 2-113                     [1, 32, 224, 224]         (recursive)
│    └─Sigmoid: 2-114                    [1, 32, 224, 224]         --
├─Sequential: 1-41                       [1, 32, 224, 224]         (recursive)
│    └─Conv2d: 2-115                     [1, 32, 224, 224]         (recursive)
│    └─Sigmoid: 2-116                    [1, 32, 224, 224]         --
├─Sequential: 1-42                       [1, 32, 224, 224]         (recursive)
│    └─Conv2d: 2-117                     [1, 32, 224, 224]         (recursive)
│    └─Tanh: 2-118                       [1, 32, 224, 224]         --
├─Sequential: 1-43                       [1, 32, 224, 224]         (recursive)
│    └─Conv2d: 2-119                     [1, 32, 224, 224]         (recursive)
│    └─Sigmoid: 2-120                    [1, 32, 224, 224]         --
├─Conv2d: 1-44                           [1, 1, 224, 224]          (recursive)
├─Sequential: 1-45                       [1, 64, 224, 224]         --
│    └─DSConv: 2-121                     [1, 64, 224, 224]         --
│    │    └─Conv2d: 3-89                 [1, 4, 224, 224]          104
│    │    └─Conv2d: 3-90                 [1, 64, 224, 224]         320
│    └─ReLU: 2-122                       [1, 64, 224, 224]         --
├─Sequential: 1-46                       [1, 128, 112, 112]        --
│    └─DSConv: 2-123                     [1, 128, 112, 112]        --
│    │    └─Conv2d: 3-91                 [1, 64, 112, 112]         640
│    │    └─Conv2d: 3-92                 [1, 128, 112, 112]        8,320
│    └─ReLU: 2-124                       [1, 128, 112, 112]        --
├─Sequential: 1-47                       [1, 128, 112, 112]        --
│    └─DSConv: 2-125                     [1, 128, 112, 112]        --
│    │    └─Conv2d: 3-93                 [1, 128, 112, 112]        1,280
│    │    └─Conv2d: 3-94                 [1, 128, 112, 112]        16,512
│    └─ReLU: 2-126                       [1, 128, 112, 112]        --
├─Sequential: 1-48                       [1, 256, 56, 56]          --
│    └─DSConv: 2-127                     [1, 256, 56, 56]          --
│    │    └─Conv2d: 3-95                 [1, 128, 56, 56]          1,280
│    │    └─Conv2d: 3-96                 [1, 256, 56, 56]          33,024
│    └─ReLU: 2-128                       [1, 256, 56, 56]          --
├─Sequential: 1-49                       [1, 256, 56, 56]          --
│    └─DSConv: 2-129                     [1, 256, 56, 56]          --
│    │    └─Conv2d: 3-97                 [1, 256, 56, 56]          2,560
│    │    └─Conv2d: 3-98                 [1, 256, 56, 56]          65,792
│    └─ReLU: 2-130                       [1, 256, 56, 56]          --
├─Sequential: 1-50                       [1, 256, 56, 56]          --
│    └─DSConv: 2-131                     [1, 256, 56, 56]          --
│    │    └─Conv2d: 3-99                 [1, 256, 56, 56]          2,560
│    │    └─Conv2d: 3-100                [1, 256, 56, 56]          65,792
│    └─ReLU: 2-132                       [1, 256, 56, 56]          --
├─Sequential: 1-51                       [1, 256, 56, 56]          --
│    └─Conv2d: 2-133                     [1, 256, 56, 56]          590,080
│    └─ReLU: 2-134                       [1, 256, 56, 56]          --
├─Sequential: 1-52                       [1, 256, 56, 56]          --
│    └─Conv2d: 2-135                     [1, 256, 56, 56]          590,080
│    └─ReLU: 2-136                       [1, 256, 56, 56]          --
├─Sequential: 1-53                       [1, 256, 56, 56]          --
│    └─Conv2d: 2-137                     [1, 256, 56, 56]          590,080
│    └─ReLU: 2-138                       [1, 256, 56, 56]          --
├─Sequential: 1-54                       [1, 256, 56, 56]          --
│    └─Conv2d: 2-139                     [1, 256, 56, 56]          590,080
│    └─ReLU: 2-140                       [1, 256, 56, 56]          --
├─Sequential: 1-55                       [1, 256, 56, 56]          --
│    └─DSConv: 2-141                     [1, 256, 56, 56]          --
│    │    └─Conv2d: 3-101                [1, 256, 56, 56]          2,560
│    │    └─Conv2d: 3-102                [1, 256, 56, 56]          65,792
│    └─ReLU: 2-142                       [1, 256, 56, 56]          --
├─Sequential: 1-56                       [1, 256, 56, 56]          --
│    └─DSConv: 2-143                     [1, 256, 56, 56]          --
│    │    └─Conv2d: 3-103                [1, 256, 56, 56]          2,560
│    │    └─Conv2d: 3-104                [1, 256, 56, 56]          65,792
│    └─ReLU: 2-144                       [1, 256, 56, 56]          --
├─Conv2d: 1-57                           [1, 3, 56, 56]            6,915
├─Sequential: 1-58                       [1, 128, 112, 112]        --
│    └─ConvTranspose2d: 2-145            [1, 128, 112, 112]        524,416
│    └─ReflectionPad2d: 2-146            [1, 128, 113, 113]        --
│    └─AvgPool2d: 2-147                  [1, 128, 112, 112]        --
│    └─ReLU: 2-148                       [1, 128, 112, 112]        --
├─Sequential: 1-59                       [1, 64, 112, 112]         --
│    └─DSConv: 2-149                     [1, 64, 112, 112]         --
│    │    └─Conv2d: 3-105                [1, 128, 112, 112]        1,280
│    │    └─Conv2d: 3-106                [1, 64, 112, 112]         8,256
│    └─ReLU: 2-150                       [1, 64, 112, 112]         --
├─Conv2d: 1-60                           [1, 3, 112, 112]          1,731
├─Sequential: 1-61                       [1, 64, 224, 224]         --
│    └─ConvTranspose2d: 2-151            [1, 64, 224, 224]         65,600
│    └─ReflectionPad2d: 2-152            [1, 64, 225, 225]         --
│    └─AvgPool2d: 2-153                  [1, 64, 224, 224]         --
│    └─ReLU: 2-154                       [1, 64, 224, 224]         --
├─Conv2d: 1-62                           [1, 3, 224, 224]          1,731
==========================================================================================
Total params: 3,393,242
Trainable params: 3,393,242
Non-trainable params: 0
Total mult-adds (G): 36.53
==========================================================================================
Input size (MB): 0.60
Forward/backward pass size (MB): 1510.87
Params size (MB): 13.57
Estimated Total Size (MB): 1525.05
…
