…
[INFO] Register zero_ops() for <class 'torch.nn.modules.activation.ReLU'>.
[INFO] Register zero_ops() for <class 'torch.nn.modules.container.Sequential'>.
[INFO] Register count_linear() for <class 'torch.nn.modules.linear.Linear'>.
FLOPs (thop): 53,674,673,152.0
FLOPs (fvcore): 53,674,673,152

Detailed Model Summary:
==========================================================================================
Layer (type:depth-idx)                   Output Shape              Param #
==========================================================================================
Discriminator                            [1, 1, 224, 224]          --
├─Sequential: 1-1                        [1, 8, 224, 224]          --
│    └─Conv2d: 2-1                       [1, 8, 224, 224]          608
│    └─ReLU: 2-2                         [1, 8, 224, 224]          --
├─Sequential: 1-2                        [1, 16, 224, 224]         --
│    └─Conv2d: 2-3                       [1, 16, 224, 224]         3,216
│    └─ReLU: 2-4                         [1, 16, 224, 224]         --
├─Sequential: 1-3                        [1, 64, 224, 224]         --
│    └─Conv2d: 2-5                       [1, 64, 224, 224]         25,664
│    └─ReLU: 2-6                         [1, 64, 224, 224]         --
├─Sequential: 1-4                        [1, 128, 224, 224]        --
│    └─Conv2d: 2-7                       [1, 128, 224, 224]        204,928
│    └─ReLU: 2-8                         [1, 128, 224, 224]        --
├─Sequential: 1-5                        [1, 128, 224, 224]        --
│    └─Conv2d: 2-9                       [1, 128, 224, 224]        409,728
│    └─ReLU: 2-10                        [1, 128, 224, 224]        --
├─Sequential: 1-6                        [1, 128, 224, 224]        --
│    └─Conv2d: 2-11                      [1, 128, 224, 224]        409,728
│    └─ReLU: 2-12                        [1, 128, 224, 224]        --
├─Sequential: 1-7                        [1, 1, 224, 224]          --
│    └─Conv2d: 2-13                      [1, 1, 224, 224]          3,201
├─Sequential: 1-8                        [1, 64, 56, 56]           --
│    └─Conv2d: 2-14                      [1, 64, 56, 56]           204,864
│    └─ReLU: 2-15                        [1, 64, 56, 56]           --
├─Sequential: 1-9                        [1, 32, 14, 14]           --
│    └─Conv2d: 2-16                      [1, 32, 14, 14]           51,232
│    └─ReLU: 2-17                        [1, 32, 14, 14]           --
├─Sequential: 1-10                       [1, 1]                    --
│    └─Linear: 2-18                      [1, 1024]                 6,423,552
│    └─Linear: 2-19                      [1, 1]                    1,025
│    └─Sigmoid: 2-20                     [1, 1]                    --
==========================================================================================
Total params: 7,737,746
Trainable params: 7,737,746
Non-trainable params: 0
Total mult-adds (G): 53.70
==========================================================================================
Input size (MB): 0.60
Forward/backward pass size (MB): 191.53
Params size (MB): 30.95
Estimated Total Size (MB): 223.08
…
[INFO] Register zero_ops() for <class 'torch.nn.modules.container.Sequential'>.
[INFO] Register count_convNd() for <class 'torch.nn.modules.conv.ConvTranspose2d'>.
[INFO] Register count_avgpool() for <class 'torch.nn.modules.pooling.AvgPool2d'>.
FLOPs (thop): 68,442,472,448.0
FLOPs (fvcore): 58,572,652,544

Detailed Model Summary:
==========================================================================================
Layer (type:depth-idx)                   Output Shape              Param #
==========================================================================================
Generator                                [1, 1, 224, 224]          --
├─Sequential: 1-1                        [1, 32, 224, 224]         --
│    └─Conv2d: 2-1                       [1, 32, 224, 224]         1,184
│    └─ReLU: 2-2                         [1, 32, 224, 224]         --
├─Sequential: 1-2                        [1, 32, 224, 224]         --
│    └─Conv2d: 2-3                       [1, 32, 224, 224]         9,248
│    └─ReLU: 2-4                         [1, 32, 224, 224]         --
│    └─Conv2d: 2-5                       [1, 32, 224, 224]         9,248
│    └─ReLU: 2-6                         [1, 32, 224, 224]         --
├─Sequential: 1-3                        [1, 32, 224, 224]         --
│    └─Conv2d: 2-7                       [1, 32, 224, 224]         9,248
│    └─ReLU: 2-8                         [1, 32, 224, 224]         --
│    └─Conv2d: 2-9                       [1, 32, 224, 224]         9,248
│    └─ReLU: 2-10                        [1, 32, 224, 224]         --
├─Sequential: 1-4                        [1, 32, 224, 224]         --
│    └─Conv2d: 2-11                      [1, 32, 224, 224]         9,248
│    └─ReLU: 2-12                        [1, 32, 224, 224]         --
│    └─Conv2d: 2-13                      [1, 32, 224, 224]         9,248
│    └─ReLU: 2-14                        [1, 32, 224, 224]         --
├─Sequential: 1-5                        [1, 32, 224, 224]         --
│    └─Conv2d: 2-15                      [1, 32, 224, 224]         9,248
│    └─ReLU: 2-16                        [1, 32, 224, 224]         --
│    └─Conv2d: 2-17                      [1, 32, 224, 224]         9,248
│    └─ReLU: 2-18                        [1, 32, 224, 224]         --
├─Sequential: 1-6                        [1, 32, 224, 224]         --
│    └─Conv2d: 2-19                      [1, 32, 224, 224]         9,248
│    └─ReLU: 2-20                        [1, 32, 224, 224]         --
│    └─Conv2d: 2-21                      [1, 32, 224, 224]         9,248
│    └─ReLU: 2-22                        [1, 32, 224, 224]         --
├─Sequential: 1-7                        [1, 32, 224, 224]         --
│    └─Conv2d: 2-23                      [1, 32, 224, 224]         18,464
│    └─Sigmoid: 2-24                     [1, 32, 224, 224]         --
├─Sequential: 1-8                        [1, 32, 224, 224]         --
│    └─Conv2d: 2-25                      [1, 32, 224, 224]         18,464
│    └─Sigmoid: 2-26                     [1, 32, 224, 224]         --
├─Sequential: 1-9                        [1, 32, 224, 224]         --
│    └─Conv2d: 2-27                      [1, 32, 224, 224]         18,464
│    └─Tanh: 2-28                        [1, 32, 224, 224]         --
├─Sequential: 1-10                       [1, 32, 224, 224]         --
│    └─Conv2d: 2-29                      [1, 32, 224, 224]         18,464
│    └─Sigmoid: 2-30                     [1, 32, 224, 224]         --
├─Sequential: 1-11                       [1, 1, 224, 224]          --
│    └─Conv2d: 2-31                      [1, 1, 224, 224]          289
├─Sequential: 1-12                       [1, 32, 224, 224]         (recursive)
│    └─Conv2d: 2-32                      [1, 32, 224, 224]         (recursive)
│    └─ReLU: 2-33                        [1, 32, 224, 224]         --
├─Sequential: 1-13                       [1, 32, 224, 224]         (recursive)
│    └─Conv2d: 2-34                      [1, 32, 224, 224]         (recursive)
│    └─ReLU: 2-35                        [1, 32, 224, 224]         --
│    └─Conv2d: 2-36                      [1, 32, 224, 224]         (recursive)
│    └─ReLU: 2-37                        [1, 32, 224, 224]         --
├─Sequential: 1-14                       [1, 32, 224, 224]         (recursive)
│    └─Conv2d: 2-38                      [1, 32, 224, 224]         (recursive)
│    └─ReLU: 2-39                        [1, 32, 224, 224]         --
│    └─Conv2d: 2-40                      [1, 32, 224, 224]         (recursive)
│    └─ReLU: 2-41                        [1, 32, 224, 224]         --
├─Sequential: 1-15                       [1, 32, 224, 224]         (recursive)
│    └─Conv2d: 2-42                      [1, 32, 224, 224]         (recursive)
│    └─ReLU: 2-43                        [1, 32, 224, 224]         --
│    └─Conv2d: 2-44                      [1, 32, 224, 224]         (recursive)
│    └─ReLU: 2-45                        [1, 32, 224, 224]         --
├─Sequential: 1-16                       [1, 32, 224, 224]         (recursive)
│    └─Conv2d: 2-46                      [1, 32, 224, 224]         (recursive)
│    └─ReLU: 2-47                        [1, 32, 224, 224]         --
│    └─Conv2d: 2-48                      [1, 32, 224, 224]         (recursive)
│    └─ReLU: 2-49                        [1, 32, 224, 224]         --
├─Sequential: 1-17                       [1, 32, 224, 224]         (recursive)
│    └─Conv2d: 2-50                      [1, 32, 224, 224]         (recursive)
│    └─ReLU: 2-51                        [1, 32, 224, 224]         --
│    └─Conv2d: 2-52                      [1, 32, 224, 224]         (recursive)
│    └─ReLU: 2-53                        [1, 32, 224, 224]         --
├─Sequential: 1-18                       [1, 32, 224, 224]         (recursive)
│    └─Conv2d: 2-54                      [1, 32, 224, 224]         (recursive)
│    └─Sigmoid: 2-55                     [1, 32, 224, 224]         --
├─Sequential: 1-19                       [1, 32, 224, 224]         (recursive)
│    └─Conv2d: 2-56                      [1, 32, 224, 224]         (recursive)
│    └─Sigmoid: 2-57                     [1, 32, 224, 224]         --
├─Sequential: 1-20                       [1, 32, 224, 224]         (recursive)
│    └─Conv2d: 2-58                      [1, 32, 224, 224]         (recursive)
│    └─Tanh: 2-59                        [1, 32, 224, 224]         --
├─Sequential: 1-21                       [1, 32, 224, 224]         (recursive)
│    └─Conv2d: 2-60                      [1, 32, 224, 224]         (recursive)
│    └─Sigmoid: 2-61                     [1, 32, 224, 224]         --
├─Sequential: 1-22                       [1, 1, 224, 224]          (recursive)
│    └─Conv2d: 2-62                      [1, 1, 224, 224]          (recursive)
├─Sequential: 1-23                       [1, 32, 224, 224]         (recursive)
│    └─Conv2d: 2-63                      [1, 32, 224, 224]         (recursive)
│    └─ReLU: 2-64                        [1, 32, 224, 224]         --
├─Sequential: 1-24                       [1, 32, 224, 224]         (recursive)
│    └─Conv2d: 2-65                      [1, 32, 224, 224]         (recursive)
│    └─ReLU: 2-66                        [1, 32, 224, 224]         --
│    └─Conv2d: 2-67                      [1, 32, 224, 224]         (recursive)
│    └─ReLU: 2-68                        [1, 32, 224, 224]         --
├─Sequential: 1-25                       [1, 32, 224, 224]         (recursive)
│    └─Conv2d: 2-69                      [1, 32, 224, 224]         (recursive)
│    └─ReLU: 2-70                        [1, 32, 224, 224]         --
│    └─Conv2d: 2-71                      [1, 32, 224, 224]         (recursive)
│    └─ReLU: 2-72                        [1, 32, 224, 224]         --
├─Sequential: 1-26                       [1, 32, 224, 224]         (recursive)
│    └─Conv2d: 2-73                      [1, 32, 224, 224]         (recursive)
│    └─ReLU: 2-74                        [1, 32, 224, 224]         --
│    └─Conv2d: 2-75                      [1, 32, 224, 224]         (recursive)
│    └─ReLU: 2-76                        [1, 32, 224, 224]         --
├─Sequential: 1-27                       [1, 32, 224, 224]         (recursive)
│    └─Conv2d: 2-77                      [1, 32, 224, 224]         (recursive)
│    └─ReLU: 2-78                        [1, 32, 224, 224]         --
│    └─Conv2d: 2-79                      [1, 32, 224, 224]         (recursive)
│    └─ReLU: 2-80                        [1, 32, 224, 224]         --
├─Sequential: 1-28                       [1, 32, 224, 224]         (recursive)
│    └─Conv2d: 2-81                      [1, 32, 224, 224]         (recursive)
│    └─ReLU: 2-82                        [1, 32, 224, 224]         --
│    └─Conv2d: 2-83                      [1, 32, 224, 224]         (recursive)
│    └─ReLU: 2-84                        [1, 32, 224, 224]         --
├─Sequential: 1-29                       [1, 32, 224, 224]         (recursive)
│    └─Conv2d: 2-85                      [1, 32, 224, 224]         (recursive)
│    └─Sigmoid: 2-86                     [1, 32, 224, 224]         --
├─Sequential: 1-30                       [1, 32, 224, 224]         (recursive)
│    └─Conv2d: 2-87                      [1, 32, 224, 224]         (recursive)
│    └─Sigmoid: 2-88                     [1, 32, 224, 224]         --
├─Sequential: 1-31                       [1, 32, 224, 224]         (recursive)
│    └─Conv2d: 2-89                      [1, 32, 224, 224]         (recursive)
│    └─Tanh: 2-90                        [1, 32, 224, 224]         --
├─Sequential: 1-32                       [1, 32, 224, 224]         (recursive)
│    └─Conv2d: 2-91                      [1, 32, 224, 224]         (recursive)
│    └─Sigmoid: 2-92                     [1, 32, 224, 224]         --
├─Sequential: 1-33                       [1, 1, 224, 224]          (recursive)
│    └─Conv2d: 2-93                      [1, 1, 224, 224]          (recursive)
├─Sequential: 1-34                       [1, 32, 224, 224]         (recursive)
│    └─Conv2d: 2-94                      [1, 32, 224, 224]         (recursive)
│    └─ReLU: 2-95                        [1, 32, 224, 224]         --
├─Sequential: 1-35                       [1, 32, 224, 224]         (recursive)
│    └─Conv2d: 2-96                      [1, 32, 224, 224]         (recursive)
│    └─ReLU: 2-97                        [1, 32, 224, 224]         --
│    └─Conv2d: 2-98                      [1, 32, 224, 224]         (recursive)
│    └─ReLU: 2-99                        [1, 32, 224, 224]         --
├─Sequential: 1-36                       [1, 32, 224, 224]         (recursive)
│    └─Conv2d: 2-100                     [1, 32, 224, 224]         (recursive)
│    └─ReLU: 2-101                       [1, 32, 224, 224]         --
│    └─Conv2d: 2-102                     [1, 32, 224, 224]         (recursive)
│    └─ReLU: 2-103                       [1, 32, 224, 224]         --
├─Sequential: 1-37                       [1, 32, 224, 224]         (recursive)
│    └─Conv2d: 2-104                     [1, 32, 224, 224]         (recursive)
│    └─ReLU: 2-105                       [1, 32, 224, 224]         --
│    └─Conv2d: 2-106                     [1, 32, 224, 224]         (recursive)
│    └─ReLU: 2-107                       [1, 32, 224, 224]         --
├─Sequential: 1-38                       [1, 32, 224, 224]         (recursive)
│    └─Conv2d: 2-108                     [1, 32, 224, 224]         (recursive)
│    └─ReLU: 2-109                       [1, 32, 224, 224]         --
│    └─Conv2d: 2-110                     [1, 32, 224, 224]         (recursive)
│    └─ReLU: 2-111                       [1, 32, 224, 224]         --
├─Sequential: 1-39                       [1, 32, 224, 224]         (recursive)
│    └─Conv2d: 2-112                     [1, 32, 224, 224]         (recursive)
│    └─ReLU: 2-113                       [1, 32, 224, 224]         --
│    └─Conv2d: 2-114                     [1, 32, 224, 224]         (recursive)
│    └─ReLU: 2-115                       [1, 32, 224, 224]         --
├─Sequential: 1-40                       [1, 32, 224, 224]         (recursive)
│    └─Conv2d: 2-116                     [1, 32, 224, 224]         (recursive)
│    └─Sigmoid: 2-117                    [1, 32, 224, 224]         --
├─Sequential: 1-41                       [1, 32, 224, 224]         (recursive)
│    └─Conv2d: 2-118                     [1, 32, 224, 224]         (recursive)
│    └─Sigmoid: 2-119                    [1, 32, 224, 224]         --
├─Sequential: 1-42                       [1, 32, 224, 224]         (recursive)
│    └─Conv2d: 2-120                     [1, 32, 224, 224]         (recursive)
│    └─Tanh: 2-121                       [1, 32, 224, 224]         --
├─Sequential: 1-43                       [1, 32, 224, 224]         (recursive)
│    └─Conv2d: 2-122                     [1, 32, 224, 224]         (recursive)
│    └─Sigmoid: 2-123                    [1, 32, 224, 224]         --
├─Sequential: 1-44                       [1, 1, 224, 224]          (recursive)
│    └─Conv2d: 2-124                     [1, 1, 224, 224]          (recursive)
├─Sequential: 1-45                       [1, 64, 224, 224]         --
│    └─Conv2d: 2-125                     [1, 64, 224, 224]         6,464
│    └─ReLU: 2-126                       [1, 64, 224, 224]         --
├─Sequential: 1-46                       [1, 128, 112, 112]        --
│    └─Conv2d: 2-127                     [1, 128, 112, 112]        73,856
│    └─ReLU: 2-128                       [1, 128, 112, 112]        --
├─Sequential: 1-47                       [1, 128, 112, 112]        --
│    └─Conv2d: 2-129                     [1, 128, 112, 112]        147,584
│    └─ReLU: 2-130                       [1, 128, 112, 112]        --
├─Sequential: 1-48                       [1, 256, 56, 56]          --
│    └─Conv2d: 2-131                     [1, 256, 56, 56]          295,168
│    └─ReLU: 2-132                       [1, 256, 56, 56]          --
├─Sequential: 1-49                       [1, 256, 56, 56]          --
│    └─Conv2d: 2-133                     [1, 256, 56, 56]          590,080
│    └─ReLU: 2-134                       [1, 256, 56, 56]          --
├─Sequential: 1-50                       [1, 256, 56, 56]          --
│    └─Conv2d: 2-135                     [1, 256, 56, 56]          590,080
│    └─ReLU: 2-136                       [1, 256, 56, 56]          --
├─Sequential: 1-51                       [1, 256, 56, 56]          --
│    └─Conv2d: 2-137                     [1, 256, 56, 56]          590,080
│    └─ReLU: 2-138                       [1, 256, 56, 56]          --
├─Sequential: 1-52                       [1, 256, 56, 56]          --
│    └─Conv2d: 2-139                     [1, 256, 56, 56]          590,080
│    └─ReLU: 2-140                       [1, 256, 56, 56]          --
├─Sequential: 1-53                       [1, 256, 56, 56]          --
│    └─Conv2d: 2-141                     [1, 256, 56, 56]          590,080
│    └─ReLU: 2-142                       [1, 256, 56, 56]          --
├─Sequential: 1-54                       [1, 256, 56, 56]          --
│    └─Conv2d: 2-143                     [1, 256, 56, 56]          590,080
│    └─ReLU: 2-144                       [1, 256, 56, 56]          --
├─Sequential: 1-55                       [1, 256, 56, 56]          --
│    └─Conv2d: 2-145                     [1, 256, 56, 56]          590,080
│    └─ReLU: 2-146                       [1, 256, 56, 56]          --
├─Sequential: 1-56                       [1, 256, 56, 56]          --
│    └─Conv2d: 2-147                     [1, 256, 56, 56]          590,080
│    └─ReLU: 2-148                       [1, 256, 56, 56]          --
├─Sequential: 1-57                       [1, 3, 56, 56]            --
│    └─Conv2d: 2-149                     [1, 3, 56, 56]            6,915
│    └─ReLU: 2-150                       [1, 3, 56, 56]            --
├─Sequential: 1-58                       [1, 128, 112, 112]        --
│    └─ConvTranspose2d: 2-151            [1, 128, 112, 112]        524,416
│    └─ReflectionPad2d: 2-152            [1, 128, 113, 113]        --
│    └─AvgPool2d: 2-153                  [1, 128, 112, 112]        --
│    └─ReLU: 2-154                       [1, 128, 112, 112]        --
├─Sequential: 1-59                       [1, 128, 112, 112]        --
│    └─Conv2d: 2-155                     [1, 128, 112, 112]        147,584
│    └─ReLU: 2-156                       [1, 128, 112, 112]        --
├─Sequential: 1-60                       [1, 3, 112, 112]          --
│    └─Conv2d: 2-157                     [1, 3, 112, 112]          3,459
│    └─ReLU: 2-158                       [1, 3, 112, 112]          --
├─Sequential: 1-61                       [1, 64, 224, 224]         --
│    └─ConvTranspose2d: 2-159            [1, 64, 224, 224]         131,136
│    └─ReflectionPad2d: 2-160            [1, 64, 225, 225]         --
│    └─AvgPool2d: 2-161                  [1, 64, 224, 224]         --
│    └─ReLU: 2-162                       [1, 64, 224, 224]         --
├─Sequential: 1-62                       [1, 32, 224, 224]         --
│    └─Conv2d: 2-163                     [1, 32, 224, 224]         18,464
│    └─ReLU: 2-164                       [1, 32, 224, 224]         --
├─Sequential: 1-63                       [1, 3, 224, 224]          --
│    └─Conv2d: 2-165                     [1, 3, 224, 224]          867
==========================================================================================
Total params: 6,244,362
Trainable params: 6,244,362
Non-trainable params: 0
Total mult-adds (G): 68.56
==========================================================================================
Input size (MB): 0.60
Forward/backward pass size (MB): 947.30
Params size (MB): 24.98
Estimated Total Size (MB): 972.88
…
